Neural Network Tools for STM32AI v1.6.0 (STM.ai v7.3.0-RC5)
Created date          : 2023-01-23 17:25:59
Parameters            : generate --name phase_1 -m /home/felipe/Téléchargements/phase1.tflite --type tflite --compression low --verbosity 1 --workspace /tmp/mxAI_workspace763676565599084150748068159927493 --output /home/felipe/.stm32cubemx/phase_1_output --allocate-inputs --allocate-outputs

Exec/report summary (generate)
----------------------------------------------------------------------------------------------
model file         :   /home/felipe/Téléchargements/phase1.tflite                            
type               :   tflite                                                                
c_name             :   phase_1                                                               
compression        :   low                                                                   
options            :   allocate-inputs, allocate-outputs                                     
optimization       :   balanced                                                              
target/series      :   generic                                                               
workspace dir      :   /tmp/mxAI_workspace763676565599084150748068159927493                  
output dir         :   /home/felipe/.stm32cubemx/phase_1_output                              
model_fmt          :   float                                                                 
model_name         :   phase1                                                                
model_hash         :   38233d661de28190ac223478d283e67e                                      
params #           :   1,144,970 items (4.37 MiB)                                            
----------------------------------------------------------------------------------------------
input 1/1          :   'serving_default_conv2d_3_input0' (domain:activations/**default**)    
                   :   8064 items, 31.50 KiB, ai_float, float, (1,63,128,1)                  
output 1/1         :   'nl_21' (domain:activations/**default**)                              
                   :   10 items, 40 B, ai_float, float, (1,1,1,10)                           
macc               :   21,032,320                                                            
weights (ro)       :   1,435,176 B (1.37 MiB) (1 segment) / -3,144,704(-68.7%) vs float model
activations (rw)   :   278,144 B (271.62 KiB) (1 segment) *                                  
ram (total)        :   278,144 B (271.62 KiB) = 278,144 + 0 + 0                              
----------------------------------------------------------------------------------------------
(*) 'input'/'output' buffers can be used from the activations buffer

Model name - phase1 ['serving_default_conv2d_3_input0'] ['nl_21']
-------------------------------------------------------------------------------------------------------------------------------------------------------------------------------------------------------------------------------------------------------------------------
id   layer (type,original)                                                   oshape                 param/size            macc        connected to                                            |   c_size               c_macc              c_type                       
-------------------------------------------------------------------------------------------------------------------------------------------------------------------------------------------------------------------------------------------------------------------------
0    serving_default_conv2d_3_input0 (Input, )                               [b:1,h:63,w:128,c:1]                                                                                             |   +1,280(+100.0%)      +655,392(+100.0%)   conv2d_of32[0]               
     conv2d_0 (Conv2D, CONV_2D)                                              [b:1,h:32,w:64,c:32]   320/1,280             589,856     serving_default_conv2d_3_input0                         |   -1,280(-100.0%)      -589,856(-100.0%)  
     nl_0_nl (Nonlinearity, CONV_2D)                                         [b:1,h:32,w:64,c:32]                         65,536      conv2d_0                                                |                        -65,536(-100.0%)   
-------------------------------------------------------------------------------------------------------------------------------------------------------------------------------------------------------------------------------------------------------------------------
1    sequential_1_batch_normalization_7_FusedBatchNormV3 (Placeholder, )     [b:None,c:32]          32/128                                                                                    |   -128(-100.0%)                           
     eltwise_1 (Eltwise, MUL)                                                [b:1,h:32,w:64,c:32]                         65,536      nl_0_nl                                                 |                        -65,536(-100.0%)   
                                                                                                                                      sequential_1_batch_normalization_7_FusedBatchNormV3     |  
-------------------------------------------------------------------------------------------------------------------------------------------------------------------------------------------------------------------------------------------------------------------------
2    sequential_1_batch_normalization_7_FusedBatchNormV31 (Placeholder, )    [b:None,c:32]          32/128                                                                                    |   +128(+100.0%)        +131,072(+100.0%)   bn_of32[1]                   
     eltwise_2 (Eltwise, ADD)                                                [b:1,h:32,w:64,c:32]                         65,536      eltwise_1                                               |                        -65,536(-100.0%)   
                                                                                                                                      sequential_1_batch_normalization_7_FusedBatchNormV31    |  
-------------------------------------------------------------------------------------------------------------------------------------------------------------------------------------------------------------------------------------------------------------------------
3    pool_3 (Pool, MAX_POOL_2D)                                              [b:1,h:16,w:32,c:32]                         65,536      eltwise_2                                               |                                            pool_of32[2]                 
-------------------------------------------------------------------------------------------------------------------------------------------------------------------------------------------------------------------------------------------------------------------------
4    sequential_1_batch_normalization_8_FusedBatchNormV3 (Placeholder, )     [b:None,c:32]          32/128                                                                                    |   -128(-100.0%)                           
     eltwise_4 (Eltwise, MUL)                                                [b:1,h:16,w:32,c:32]                         16,384      pool_3                                                  |                        -16,384(-100.0%)   
                                                                                                                                      sequential_1_batch_normalization_8_FusedBatchNormV3     |  
-------------------------------------------------------------------------------------------------------------------------------------------------------------------------------------------------------------------------------------------------------------------------
5    sequential_1_batch_normalization_8_FusedBatchNormV31 (Placeholder, )    [b:None,c:32]          32/128                                                                                    |   +128(+100.0%)        +32,768(+100.0%)    bn_of32[3]                   
     eltwise_5 (Eltwise, ADD)                                                [b:1,h:16,w:32,c:32]                         16,384      eltwise_4                                               |                        -16,384(-100.0%)   
                                                                                                                                      sequential_1_batch_normalization_8_FusedBatchNormV31    |  
-------------------------------------------------------------------------------------------------------------------------------------------------------------------------------------------------------------------------------------------------------------------------
6    conv2d_6 (Conv2D, CONV_2D)                                              [b:1,h:16,w:32,c:64]   18,496/73,984         9,437,248   eltwise_5                                               |                        +32,768(+0.3%)      conv2d_of32[4]               
     nl_6_nl (Nonlinearity, CONV_2D)                                         [b:1,h:16,w:32,c:64]                         32,768      conv2d_6                                                |                        -32,768(-100.0%)   
-------------------------------------------------------------------------------------------------------------------------------------------------------------------------------------------------------------------------------------------------------------------------
7    sequential_1_batch_normalization_9_FusedBatchNormV3 (Placeholder, )     [b:None,c:64]          64/256                                                                                    |   -256(-100.0%)                           
     eltwise_7 (Eltwise, MUL)                                                [b:1,h:16,w:32,c:64]                         32,768      nl_6_nl                                                 |                        -32,768(-100.0%)   
                                                                                                                                      sequential_1_batch_normalization_9_FusedBatchNormV3     |  
-------------------------------------------------------------------------------------------------------------------------------------------------------------------------------------------------------------------------------------------------------------------------
8    sequential_1_batch_normalization_9_FusedBatchNormV31 (Placeholder, )    [b:None,c:64]          64/256                                                                                    |   +256(+100.0%)        +65,536(+100.0%)    bn_of32[5]                   
     eltwise_8 (Eltwise, ADD)                                                [b:1,h:16,w:32,c:64]                         32,768      eltwise_7                                               |                        -32,768(-100.0%)   
                                                                                                                                      sequential_1_batch_normalization_9_FusedBatchNormV31    |  
-------------------------------------------------------------------------------------------------------------------------------------------------------------------------------------------------------------------------------------------------------------------------
9    pool_9 (Pool, MAX_POOL_2D)                                              [b:1,h:8,w:16,c:64]                          32,768      eltwise_8                                               |                                            pool_of32[6]                 
-------------------------------------------------------------------------------------------------------------------------------------------------------------------------------------------------------------------------------------------------------------------------
10   sequential_1_batch_normalization_10_FusedBatchNormV3 (Placeholder, )    [b:None,c:64]          64/256                                                                                    |   -256(-100.0%)                           
     eltwise_10 (Eltwise, MUL)                                               [b:1,h:8,w:16,c:64]                          8,192       pool_9                                                  |                        -8,192(-100.0%)    
                                                                                                                                      sequential_1_batch_normalization_10_FusedBatchNormV3    |  
-------------------------------------------------------------------------------------------------------------------------------------------------------------------------------------------------------------------------------------------------------------------------
11   sequential_1_batch_normalization_10_FusedBatchNormV31 (Placeholder, )   [b:None,c:64]          64/256                                                                                    |   +256(+100.0%)        +16,384(+100.0%)    bn_of32[7]                   
     eltwise_11 (Eltwise, ADD)                                               [b:1,h:8,w:16,c:64]                          8,192       eltwise_10                                              |                        -8,192(-100.0%)    
                                                                                                                                      sequential_1_batch_normalization_10_FusedBatchNormV31   |  
-------------------------------------------------------------------------------------------------------------------------------------------------------------------------------------------------------------------------------------------------------------------------
12   conv2d_12 (Conv2D, CONV_2D)                                             [b:1,h:8,w:16,c:128]   73,856/295,424        9,437,312   eltwise_11                                              |                        +16,384(+0.2%)      conv2d_of32[8]               
     nl_12_nl (Nonlinearity, CONV_2D)                                        [b:1,h:8,w:16,c:128]                         16,384      conv2d_12                                               |                        -16,384(-100.0%)   
-------------------------------------------------------------------------------------------------------------------------------------------------------------------------------------------------------------------------------------------------------------------------
13   sequential_1_batch_normalization_11_FusedBatchNormV3 (Placeholder, )    [b:None,c:128]         128/512                                                                                   |   -512(-100.0%)                           
     eltwise_13 (Eltwise, MUL)                                               [b:1,h:8,w:16,c:128]                         16,384      nl_12_nl                                                |                        -16,384(-100.0%)   
                                                                                                                                      sequential_1_batch_normalization_11_FusedBatchNormV3    |  
-------------------------------------------------------------------------------------------------------------------------------------------------------------------------------------------------------------------------------------------------------------------------
14   sequential_1_batch_normalization_11_FusedBatchNormV31 (Placeholder, )   [b:None,c:128]         128/512                                                                                   |   +512(+100.0%)        +32,768(+100.0%)    bn_of32[9]                   
     eltwise_14 (Eltwise, ADD)                                               [b:1,h:8,w:16,c:128]                         16,384      eltwise_13                                              |                        -16,384(-100.0%)   
                                                                                                                                      sequential_1_batch_normalization_11_FusedBatchNormV31   |  
-------------------------------------------------------------------------------------------------------------------------------------------------------------------------------------------------------------------------------------------------------------------------
15   pool_15 (Pool, MAX_POOL_2D)                                             [b:1,h:4,w:8,c:128]                          16,384      eltwise_14                                              |                                            pool_of32[10]                
-------------------------------------------------------------------------------------------------------------------------------------------------------------------------------------------------------------------------------------------------------------------------
16   sequential_1_batch_normalization_12_FusedBatchNormV3 (Placeholder, )    [b:None,c:128]         128/512                                                                                   |   -512(-100.0%)                           
     eltwise_16 (Eltwise, MUL)                                               [b:1,h:4,w:8,c:128]                          4,096       pool_15                                                 |                        -4,096(-100.0%)    
                                                                                                                                      sequential_1_batch_normalization_12_FusedBatchNormV3    |  
-------------------------------------------------------------------------------------------------------------------------------------------------------------------------------------------------------------------------------------------------------------------------
17   sequential_1_batch_normalization_12_FusedBatchNormV31 (Placeholder, )   [b:None,c:128]         128/512                                                                                   |   +512(+100.0%)        +8,192(+100.0%)     bn_of32[11]                  
     eltwise_17 (Eltwise, ADD)                                               [b:1,h:4,w:8,c:128]                          4,096       eltwise_16                                              |                        -4,096(-100.0%)    
                                                                                                                                      sequential_1_batch_normalization_12_FusedBatchNormV31   |  
-------------------------------------------------------------------------------------------------------------------------------------------------------------------------------------------------------------------------------------------------------------------------
18   reshape_18 (Reshape, RESHAPE)                                           [b:1,c:4096]                                             eltwise_17                                              |                                           
-------------------------------------------------------------------------------------------------------------------------------------------------------------------------------------------------------------------------------------------------------------------------
19   dense_19 (Dense, FULLY_CONNECTED)                                       [b:1,c:256]            1,048,832/4,195,328   1,048,832   reshape_18                                              |   -3,144,704(-75.0%)   +256(+0.0%)         dense_wc8of32/nl_of32[12, 13]
     nl_19_nl (Nonlinearity, FULLY_CONNECTED)                                [b:1,c:256]                                  256         dense_19                                                |                        -256(-100.0%)      
-------------------------------------------------------------------------------------------------------------------------------------------------------------------------------------------------------------------------------------------------------------------------
20   dense_20 (Dense, FULLY_CONNECTED)                                       [b:1,c:10]             2,570/10,280          2,570       nl_19_nl                                                |                                            dense_of32[14]               
-------------------------------------------------------------------------------------------------------------------------------------------------------------------------------------------------------------------------------------------------------------------------
21   nl_21 (Nonlinearity, SOFTMAX)                                           [b:1,c:10]                                   150         dense_20                                                |                                            nl_of32[o][15]               
-------------------------------------------------------------------------------------------------------------------------------------------------------------------------------------------------------------------------------------------------------------------------
model/c-model: macc=21,032,320/21,032,320  weights=4,579,880/1,435,176 -3,144,704(-68.7%) activations=--/278,144 io=--/0



Generated C-graph summary
------------------------------------------------------------------------------------------------------------------------
model name            : phase1
c-name                : phase_1
c-node #              : 16
c-array #             : 39
activations size      : 278144 (1 segment)
weights size          : 1435176 (1 segment)
macc                  : 21032320
inputs                : ['serving_default_conv2d_3_input0_output']
outputs               : ['nl_21_output']

C-Arrays (39)
------------------------------------------------------------------------------------------------------------------------------
c_id   name (*_array)                           item/size         domain/mem-pool           c-type        fmt         comment
------------------------------------------------------------------------------------------------------------------------------
0      eltwise_8_scale                          64/256            weights/weights           const float   float32            
1      eltwise_8_bias                           64/256            weights/weights           const float   float32            
2      eltwise_11_scale                         64/256            weights/weights           const float   float32            
3      eltwise_11_bias                          64/256            weights/weights           const float   float32            
4      conv2d_12_weights                        73728/294912      weights/weights           const float   float32            
5      conv2d_12_bias                           128/512           weights/weights           const float   float32            
6      eltwise_14_scale                         128/512           weights/weights           const float   float32            
7      eltwise_14_bias                          128/512           weights/weights           const float   float32            
8      eltwise_17_scale                         128/512           weights/weights           const float   float32            
9      eltwise_17_bias                          128/512           weights/weights           const float   float32            
10     dense_19_weights                         1048576/1049600   weights/weights           const float   c8 (LUT8)          
11     dense_19_bias                            256/1024          weights/weights           const float   float32            
12     dense_20_weights                         2560/10240        weights/weights           const float   float32            
13     serving_default_conv2d_3_input0_output   8064/32256        activations/**default**   float         float32     /input 
14     conv2d_0_output                          65536/262144      activations/**default**   float         float32            
15     dense_20_bias                            10/40             weights/weights           const float   float32            
16     eltwise_2_output                         65536/262144      activations/**default**   float         float32            
17     pool_3_output                            16384/65536       activations/**default**   float         float32            
18     eltwise_5_output                         16384/65536       activations/**default**   float         float32            
19     conv2d_6_output                          32768/131072      activations/**default**   float         float32            
20     eltwise_8_output                         32768/131072      activations/**default**   float         float32            
21     pool_9_output                            8192/32768        activations/**default**   float         float32            
22     eltwise_11_output                        8192/32768        activations/**default**   float         float32            
23     conv2d_12_output                         16384/65536       activations/**default**   float         float32            
24     eltwise_14_output                        16384/65536       activations/**default**   float         float32            
25     pool_15_output                           4096/16384        activations/**default**   float         float32            
26     eltwise_17_output                        4096/16384        activations/**default**   float         float32            
27     dense_19_output                          256/1024          activations/**default**   float         float32            
28     nl_19_nl_output                          256/1024          activations/**default**   float         float32            
29     dense_20_output                          10/40             activations/**default**   float         float32            
30     nl_21_output                             10/40             activations/**default**   float         float32     /output
31     conv2d_0_weights                         288/1152          weights/weights           const float   float32            
32     conv2d_0_bias                            32/128            weights/weights           const float   float32            
33     eltwise_2_scale                          32/128            weights/weights           const float   float32            
34     eltwise_2_bias                           32/128            weights/weights           const float   float32            
35     eltwise_5_scale                          32/128            weights/weights           const float   float32            
36     eltwise_5_bias                           32/128            weights/weights           const float   float32            
37     conv2d_6_weights                         18432/73728       weights/weights           const float   float32            
38     conv2d_6_bias                            64/256            weights/weights           const float   float32            
------------------------------------------------------------------------------------------------------------------------------

C-Layers (16)
------------------------------------------------------------------------------------------------------------------------------
c_id   name (*_layer)   id   layer_type   macc      rom       tensors                                     shape (array id)   
------------------------------------------------------------------------------------------------------------------------------
0      conv2d_0         0    conv2d       655392    1280      I: serving_default_conv2d_3_input0_output   (1,63,128,1) (13)  
                                                              W: conv2d_0_weights                         (1,32,3,3) (31)    
                                                              W: conv2d_0_bias                            (1,1,1,32) (32)    
                                                              O: conv2d_0_output                          (1,32,64,32) (14)  
------------------------------------------------------------------------------------------------------------------------------
1      eltwise_2        2    bn           131072    256       I: conv2d_0_output                          (1,32,64,32) (14)  
                                                              W: eltwise_2_scale                          (1,1,1,32) (33)    
                                                              W: eltwise_2_bias                           (1,1,1,32) (34)    
                                                              O: eltwise_2_output                         (1,32,64,32) (16)  
------------------------------------------------------------------------------------------------------------------------------
2      pool_3           3    pool         65536     0         I: eltwise_2_output                         (1,32,64,32) (16)  
                                                              O: pool_3_output                            (1,16,32,32) (17)  
------------------------------------------------------------------------------------------------------------------------------
3      eltwise_5        5    bn           32768     256       I: pool_3_output                            (1,16,32,32) (17)  
                                                              W: eltwise_5_scale                          (1,1,1,32) (35)    
                                                              W: eltwise_5_bias                           (1,1,1,32) (36)    
                                                              O: eltwise_5_output                         (1,16,32,32) (18)  
------------------------------------------------------------------------------------------------------------------------------
4      conv2d_6         6    conv2d       9470016   73984     I: eltwise_5_output                         (1,16,32,32) (18)  
                                                              W: conv2d_6_weights                         (32,64,3,3) (37)   
                                                              W: conv2d_6_bias                            (1,1,1,64) (38)    
                                                              O: conv2d_6_output                          (1,16,32,64) (19)  
------------------------------------------------------------------------------------------------------------------------------
5      eltwise_8        8    bn           65536     512       I: conv2d_6_output                          (1,16,32,64) (19)  
                                                              W: eltwise_8_scale                          (1,1,1,64) (0)     
                                                              W: eltwise_8_bias                           (1,1,1,64) (1)     
                                                              O: eltwise_8_output                         (1,16,32,64) (20)  
------------------------------------------------------------------------------------------------------------------------------
6      pool_9           9    pool         32768     0         I: eltwise_8_output                         (1,16,32,64) (20)  
                                                              O: pool_9_output                            (1,8,16,64) (21)   
------------------------------------------------------------------------------------------------------------------------------
7      eltwise_11       11   bn           16384     512       I: pool_9_output                            (1,8,16,64) (21)   
                                                              W: eltwise_11_scale                         (1,1,1,64) (2)     
                                                              W: eltwise_11_bias                          (1,1,1,64) (3)     
                                                              O: eltwise_11_output                        (1,8,16,64) (22)   
------------------------------------------------------------------------------------------------------------------------------
8      conv2d_12        12   conv2d       9453696   295424    I: eltwise_11_output                        (1,8,16,64) (22)   
                                                              W: conv2d_12_weights                        (64,128,3,3) (4)   
                                                              W: conv2d_12_bias                           (1,1,1,128) (5)    
                                                              O: conv2d_12_output                         (1,8,16,128) (23)  
------------------------------------------------------------------------------------------------------------------------------
9      eltwise_14       14   bn           32768     1024      I: conv2d_12_output                         (1,8,16,128) (23)  
                                                              W: eltwise_14_scale                         (1,1,1,128) (6)    
                                                              W: eltwise_14_bias                          (1,1,1,128) (7)    
                                                              O: eltwise_14_output                        (1,8,16,128) (24)  
------------------------------------------------------------------------------------------------------------------------------
10     pool_15          15   pool         16384     0         I: eltwise_14_output                        (1,8,16,128) (24)  
                                                              O: pool_15_output                           (1,4,8,128) (25)   
------------------------------------------------------------------------------------------------------------------------------
11     eltwise_17       17   bn           8192      1024      I: pool_15_output                           (1,4,8,128) (25)   
                                                              W: eltwise_17_scale                         (1,1,1,128) (8)    
                                                              W: eltwise_17_bias                          (1,1,1,128) (9)    
                                                              O: eltwise_17_output                        (1,4,8,128) (26)   
------------------------------------------------------------------------------------------------------------------------------
12     dense_19         19   dense        1048832   1050624   I: eltwise_17_output0                       (1,1,1,4096) (26)  
                                                              W: dense_19_weights                         (4096,1,1,256) (10)
                                                              W: dense_19_bias                            (1,1,1,256) (11)   
                                                              O: dense_19_output                          (1,1,1,256) (27)   
------------------------------------------------------------------------------------------------------------------------------
13     nl_19_nl         19   nl           256       0         I: dense_19_output                          (1,1,1,256) (27)   
                                                              O: nl_19_nl_output                          (1,1,1,256) (28)   
------------------------------------------------------------------------------------------------------------------------------
14     dense_20         20   dense        2570      10280     I: nl_19_nl_output                          (1,1,1,256) (28)   
                                                              W: dense_20_weights                         (256,1,1,10) (12)  
                                                              W: dense_20_bias                            (1,1,1,10) (15)    
                                                              O: dense_20_output                          (1,1,1,10) (29)    
------------------------------------------------------------------------------------------------------------------------------
15     nl_21            21   nl           150       0         I: dense_20_output                          (1,1,1,10) (29)    
                                                              O: nl_21_output                             (1,1,1,10) (30)    
------------------------------------------------------------------------------------------------------------------------------



Number of operations per c-layer
---------------------------------------------------------------------------------------------
c_id    m_id   name (type)          #op (type)                       #param (sparsity)      
---------------------------------------------------------------------------------------------
0       0      conv2d_0 (conv2d)            655,392 (smul_f32_f32)              320 (0.0000)
1       2      eltwise_2 (bn)               131,072 (smul_f32_f32)               64 (0.0000)
2       3      pool_3 (pool)                 65,536 (op_f32_f32)                            
3       5      eltwise_5 (bn)                32,768 (smul_f32_f32)               64 (0.0000)
4       6      conv2d_6 (conv2d)          9,470,016 (smul_f32_f32)           18,496 (0.0000)
5       8      eltwise_8 (bn)                65,536 (smul_f32_f32)              128 (0.0000)
6       9      pool_9 (pool)                 32,768 (op_f32_f32)                            
7       11     eltwise_11 (bn)               16,384 (smul_f32_f32)              128 (0.0000)
8       12     conv2d_12 (conv2d)         9,453,696 (smul_f32_f32)           73,856 (0.0000)
9       14     eltwise_14 (bn)               32,768 (smul_f32_f32)              256 (0.0000)
10      15     pool_15 (pool)                16,384 (op_f32_f32)                            
11      17     eltwise_17 (bn)                8,192 (smul_f32_f32)              256 (0.0000)
12      19     dense_19 (dense)           1,048,832 (smul_f32_c8)         1,048,832 (0.0000)
13      19     nl_19_nl (nl)                    256 (op_f32_f32)                            
14      20     dense_20 (dense)               2,570 (smul_f32_f32)            2,570 (0.0000)
15      21     nl_21 (nl)                       150 (op_f32_f32)                            
---------------------------------------------------------------------------------------------
total                                    21,032,320                       1,144,970 (0.0000)

  Number of operation types
  ---------------------------------------------
  smul_f32_f32          19,868,394       94.5%
  op_f32_f32               115,094        0.5%
  smul_f32_c8            1,048,832        5.0%

Complexity report (model)
----------------------------------------------------------------------------------------------------------------------------
m_id   name                                                    c_macc                    c_rom                     c_id    
----------------------------------------------------------------------------------------------------------------------------
0      serving_default_conv2d_3_input0                         ||                 3.1%   |                  0.1%   [0]     
2      sequential_1_batch_normalization_7_FusedBatchNormV31    |                  0.6%   |                  0.0%   [1]     
3      pool_3                                                  |                  0.3%   |                  0.0%   [2]     
5      sequential_1_batch_normalization_8_FusedBatchNormV31    |                  0.2%   |                  0.0%   [3]     
6      conv2d_6                                                ||||||||||||||||  45.0%   ||                 5.2%   [4]     
8      sequential_1_batch_normalization_9_FusedBatchNormV31    |                  0.3%   |                  0.0%   [5]     
9      pool_9                                                  |                  0.2%   |                  0.0%   [6]     
11     sequential_1_batch_normalization_10_FusedBatchNormV31   |                  0.1%   |                  0.0%   [7]     
12     conv2d_12                                               |||||||||||||||   44.9%   |||||             20.6%   [8]     
14     sequential_1_batch_normalization_11_FusedBatchNormV31   |                  0.2%   |                  0.1%   [9]     
15     pool_15                                                 |                  0.1%   |                  0.0%   [10]    
17     sequential_1_batch_normalization_12_FusedBatchNormV31   |                  0.0%   |                  0.1%   [11]    
19     dense_19                                                ||                 5.0%   ||||||||||||||||  73.2%   [12, 13]
20     dense_20                                                |                  0.0%   |                  0.7%   [14]    
21     nl_21                                                   |                  0.0%   |                  0.0%   [15]    
----------------------------------------------------------------------------------------------------------------------------
macc=21,032,320 weights=1,435,176 act=278,144 ram_io=0

Generated files (7)
------------------------------------------------------------------------
/home/felipe/.stm32cubemx/phase_1_output/phase_1_config.h
/home/felipe/.stm32cubemx/phase_1_output/phase_1.h
/home/felipe/.stm32cubemx/phase_1_output/phase_1.c
/home/felipe/.stm32cubemx/phase_1_output/phase_1_data_params.h
/home/felipe/.stm32cubemx/phase_1_output/phase_1_data_params.c
/home/felipe/.stm32cubemx/phase_1_output/phase_1_data.h
/home/felipe/.stm32cubemx/phase_1_output/phase_1_data.c
